…
"metadata":{"trusted":true,"execution":{"iopub.status.busy":"2025-03-12T02:01:01.392536Z","iopub.execute_input":"2025-03-12T02:01:01.392953Z","iopub.status.idle":"2025-03-12T02:01:01.398694Z","shell.execute_reply.started":"2025-03-12T02:01:01.392929Z","shell.execute_reply":"2025-03-12T02:01:01.397854Z"},"collapsed":true,"jupyter":{"outputs_hidden":true}},"outputs":[{"name":"stdout","text":"Wav2Vec2ForSequenceClassification(\n  (wav2vec2): Wav2Vec2Model(\n    (feature_extractor): Wav2Vec2FeatureEncoder(\n      (conv_layers): ModuleList(\n        (0): Wav2Vec2GroupNormConvLayer(\n          (conv): Conv1d(1, 512, kernel_size=(10,), stride=(5,), bias=False)\n          (activation): GELUActivation()\n          (layer_norm): GroupNorm(512, 512, eps=1e-05, affine=True)\n        )\n        (1-4): 4 x Wav2Vec2NoLayerNormConvLayer(\n          (conv): Conv1d(512, 512, kernel_size=(3,), stride=(2,), bias=False)\n          (activation): GELUActivation()\n        )\n        (5-6): 2 x Wav2Vec2NoLayerNormConvLayer(\n          (conv): Conv1d(512, 512, kernel_size=(2,), stride=(2,), bias=False)\n          (activation): GELUActivation()\n        )\n      )\n    )\n    (feature_projection): Wav2Vec2FeatureProjection(\n      (layer_norm): LayerNorm((512,), eps=1e-05, elementwise_affine=True)\n      (projection): Linear(in_features=512, out_features=768, bias=True)\n      (dropout): Dropout(p=0.1, inplace=False)\n    )\n    (encoder): Wav2Vec2Encoder(\n      (pos_conv_embed): Wav2Vec2PositionalConvEmbedding(\n        (conv): ParametrizedConv1d(\n          768, 768, kernel_size=(128,), stride=(1,), padding=(64,), groups=16\n          (parametrizations): ModuleDict(\n            (weight): ParametrizationList(\n              (0): _WeightNorm()\n            )\n          )\n        )\n        (padding): Wav2Vec2SamePadLayer()\n        (activation): GELUActivation()\n      )\n      (layer_norm): LayerNorm((768,), eps=1e-05, elementwise_affine=True)\n      (dropout): Dropout(p=0.1, inplace=False)\n      (layers): ModuleList(\n        (0-11): 12 x Wav2Vec2EncoderLayer(\n          (attention): Wav2Vec2SdpaAttention(\n            (k_proj): Linear(in_features=768, out_features=768, bias=True)\n            (v_proj): Linear(in_features=768, out_features=768, bias=True)\n            (q_proj): Linear(in_features=768, out_features=768, bias=True)\n            (out_proj): Linear(in_features=768, out_features=768, bias=True)\n          )\n          (dropout): Dropout(p=0.1, inplace=False)\n          (layer_norm): LayerNorm((768,), eps=1e-05, elementwise_affine=True)\n          (feed_forward): Wav2Vec2FeedForward(\n            (intermediate_dropout): Dropout(p=0.1, inplace=False)\n            (intermediate_dense): Linear(in_features=768, out_features=3072, bias=True)\n            (intermediate_act_fn): GELUActivation()\n            (output_dense): Linear(in_features=3072, out_features=768, bias=True)\n            (output_dropout): Dropout(p=0.1, inplace=False)\n          )\n          (final_layer_norm): LayerNorm((768,), eps=1e-05, elementwise_affine=True)\n        )\n      )\n    )\n  )\n  (projector): Linear(in_features=768, out_features=256, bias=True)\n  (classifier): Linear(in_features=256, out_features=15, bias=True)\n)\n","output_type":"stream"}],"execution_count":7},{"cell_type":"code","source":"# In thông tin từng lớp\nfor name, param in model.named_parameters():\n    print(f\"{name}: {param.shape} - Trainable: {param.requires_grad}\")","metadata":{"trusted":true,"execution":{"iopub.status.busy":"2025-03-12T02:02:50.354704Z","iopub.execute_input":"2025-03-12T02:0
…
